Chapter4/scripts/data/dispersion_sfr_M12_vary_kinetic_model.npz (npz, 4168 bytes, 3 tensors)

H12_M5_fkin1p0_v0050 f8 [4, 34]
0	0xc00f99999999999a	-3.95
1	0xc00ecccccccccccc	-3.8499999999999996
2	0xc00e000000000000	-3.75
3	0xc00d333333333332	-3.6499999999999995
4	0xc00c666666666666	-3.55
5	0xc00b999999999998	-3.4499999999999993
6	0xc00acccccccccccc	-3.3499999999999996
7	0xc009fffffffffffe	-3.249999999999999
8	0xc009333333333332	-3.1499999999999995
9	0xc008666666666664	-3.049999999999999
10	0xc007999999999998	-2.9499999999999993
11	0xc006ccccccccccca	-2.8499999999999988
12	0xc005fffffffffffe	-2.749999999999999
13	0xc005333333333330	-2.6499999999999986
14	0xc004666666666664	-2.549999999999999
15	0xc003999999999996	-2.4499999999999984
16	0xc002ccccccccccca	-2.3499999999999988
17	0xc001fffffffffffc	-2.2499999999999982
18	0xc001333333333330	-2.1499999999999986
19	0xc000666666666662	-2.049999999999998
20	0xbfff33333333332b	-1.9499999999999982
21	0xbffd999999999991	-1.849999999999998
22	0xbffbfffffffffff7	-1.749999999999998
23	0xbffa66666666665d	-1.649999999999998
24	0xbff8ccccccccccc3	-1.5499999999999978
25	0xbff7333333333329	-1.4499999999999977
26	0xbff599999999998f	-1.3499999999999976
27	0xbff3fffffffffff5	-1.2499999999999976
28	0xbff266666666665b	-1.1499999999999975
29	0xbff0ccccccccccc1	-1.0499999999999974
30	0xbfee66666666664e	-0.9499999999999973
31	0xbfeb33333333331a	-0.8499999999999972
32	0xbfe7ffffffffffe6	-0.7499999999999971
33	0xbfe4ccccccccccb2	-0.649999999999997
34	0x40322c3600000000	18.172698974609375
35	0x40321f81a0000000	18.123071670532227
36	0x4032622480000000	18.38336944580078
37	0x4032d35770000000	18.825552940368652
38	0x4033aae7d0000000	19.66759967803955
39	0x4033eb72e0000000	19.919721603393555
40	0x40345e9d90000000	20.36959171295166
41	0x403477c770000000	20.467886924743652
42	0x4035268540000000	21.150470733642578
43	0x403590ce20000000	21.565645217895508
44	0x4035d84aa0000000	21.84488868713379
45	0x403656a6e0000000	22.338483810424805
46	0x4036f2e5a0000000	22.948816299438477
47	0x4036e5af80000000	22.89720916748047
48	0x403773c860000000	23.4522762298584
49	0x403802a200000000	24.010284423828125
50	0x4039393ff0000000	25.223631858825684
51	0x403925eef0000000	25.14817714691162
52	0x4038e73930000000	24.90321636199951
53	0x403a62b3c0000000	26.385555267333984
54	0x4039edec80000000	25.92938995361328
55	0x403a8d7dc0000000	26.55270004272461
56	0x403bbdce80000000	27.741432189941406
57	0x403bf712c0000000	27.965129852294922
58	0x403d8be1a0000000	29.546411514282227
59	0x403c8ce4b0000000	28.55036449432373
60	0x403e193360000000	30.098440170288086
61	0x403ede7d60000000	30.86910057067871
62	0x403f8d55e0000000	31.552091598510742
63	0x40400e0220000000	32.109439849853516
64	0x40405e8830000000	32.7385311126709
65	0x4040958460000000	33.1681022644043
66	0x40425c3f20000000	36.72067642211914
67	0x4043455710000000	38.54171943664551
68	0x40253c8ce6666666	10.618262481689452
69	0x40252b5b9999999a	10.584683227539063
70	0x4025285e9eb851eb	10.578846893310546
71	0x4025ffa9b851eb85	10.999341735839844
72	0x402a058095c28f5c	13.0107466506958
73	0x4029c2efc7ae147b	12.880735626220703
74	0x402b4c26eccccccd	13.64873447418213
75	0x402be2b0af5c28f6	13.942754249572754
76	0x402da5b23999999a	14.823625373840333
77	0x402e58c147ae147b	15.173349609375
78	0x402e2c4b8f5c28f6	15.086513977050782
79	0x402e6371accccccc	15.194226646423338
80	0x4030af3b90a3d70b	16.68450263977051
81	0x4031a9314147ae14	17.66090782165527
82	0x403250056ccccccd	18.312582778930665
83	0x4032a223fc28f5c3	18.633361587524416
84	0x4033df7906666666	19.872940444946288
85	0x4034476110a3d70a	20.27882484436035
86	0x40350a25c3d70a3d	21.039638748168944
87	0x40356a2760000000	21.414663314819336
88	0x403569c7f1eb851f	21.413207168579103
89	0x40360f273851eb85	22.05919219970703
90	0x4036feb51851eb86	22.994950790405277
91	0x4037a8e367ae147b	23.65971992492676
92	0x4038c2caef5c28f6	24.7609090423584
93	0x4038be2a651eb851	24.7428343963623
94	0x403a043286666666	26.01639595031738
95	0x403a5c36ae147ae1	26.360209350585937
96	0x403a3c8af999999a	26.236495590209962
97	0x403c160e170a3d71	28.086152496337892
98	0x403ba4b04a3d70a4	27.64331497192383
99	0x403e427afeb851ec	30.259689254760744
100	0x403fcf28fae147ae	31.80921905517578
101	0x40412800accccccd	34.312520599365236
102	0x403a5703dd70a3d8	26.33990272521973
103	0x403a696a7999999a	26.41178092956543
104	0x403a88de63d70a3e	26.53464340209961
105	0x403ad6fd70a3d70a	26.8398046875
106	0x403b3328feb851eb	27.199844284057615
107	0x403b42cb11eb851f	27.260911102294923
108	0x403bf5b146666666	27.959736251831053
109	0x403c3f86eccccccc	28.248152542114255
110	0x403c590ecccccccc	28.347882080078122
111	0x403cd2196a3d70a3	28.82070030212402
112	0x403ce6119851eb85	28.898705978393554
113	0x403d3b5ffc28f5c3	29.231933364868166
114	0x403d4258028f5c26	29.25915542602538
115	0x403d1c889c28f5c3	29.11145950317383
116	0x403ea5cdd3333332	30.647671890258785
117	0x403e7395d0a3d70a	30.451504745483398
118	0x403ee06e47ae147b	30.876682739257813
119	0x403f3badd1eb851e	31.23312103271484
120	0x403e7863c147ae14	30.470272140502928
121	0x40404f34a0000000	32.61879348754883
122	0x4040454de28f5c28	32.54143936157226
123	0x403fbcc328f5c28e	31.737352905273433
124	0x404128ad0b851eb8	34.31778091430664
125	0x4040676bd1eb851f	32.80797790527344
126	0x40411f147c28f5c2	34.24281265258789
127	0x404153723ae147ae	34.65192352294922
128	0x404202d3d3333333	36.02208938598633
129	0x40417de16b851eb8	34.983441772460935
130	0x4042fd2426666667	37.97766571044922
131	0x4042a414e0000000	37.28188705444336
132	0x40435cf21eb851ec	38.72613891601563
133	0x40441639c8f5c28f	40.17363845825195
134	0x4043799d747ae148	38.950117645263674
135	0x404588e433333333	43.069464111328124

H12_M5_fkin1p0_v0050_NoRelMotion f8 [4, 34]
0	0xc00f99999999999a	-3.95
1	0xc00ecccccccccccc	-3.8499999999999996
2	0xc00e000000000000	-3.75
3	0xc00d333333333332	-3.6499999999999995
4	0xc00c666666666666	-3.55
5	0xc00b999999999998	-3.4499999999999993
6	0xc00acccccccccccc	-3.3499999999999996
7	0xc009fffffffffffe	-3.249999999999999
8	0xc009333333333332	-3.1499999999999995
9	0xc008666666666664	-3.049999999999999
10	0xc007999999999998	-2.9499999999999993
11	0xc006ccccccccccca	-2.8499999999999988
12	0xc005fffffffffffe	-2.749999999999999
13	0xc005333333333330	-2.6499999999999986
14	0xc004666666666664	-2.549999999999999
15	0xc003999999999996	-2.4499999999999984
16	0xc002ccccccccccca	-2.3499999999999988
17	0xc001fffffffffffc	-2.2499999999999982
18	0xc001333333333330	-2.1499999999999986
19	0xc000666666666662	-2.049999999999998
20	0xbfff33333333332b	-1.9499999999999982
21	0xbffd999999999991	-1.849999999999998
22	0xbffbfffffffffff7	-1.749999999999998
23	0xbffa66666666665d	-1.649999999999998
24	0xbff8ccccccccccc3	-1.5499999999999978
25	0xbff7333333333329	-1.4499999999999977
26	0xbff599999999998f	-1.3499999999999976
27	0xbff3fffffffffff5	-1.2499999999999976
28	0xbff266666666665b	-1.1499999999999975
29	0xbff0ccccccccccc1	-1.0499999999999974
30	0xbfee66666666664e	-0.9499999999999973
31	0xbfeb33333333331a	-0.8499999999999972
32	0xbfe7ffffffffffe6	-0.7499999999999971
33	0xbfe4ccccccccccb2	-0.649999999999997
34	0x403388e0a0000000	19.534677505493164
35	0x40346ba980000000	20.420555114746094
36	0x4034c595e0000000	20.771818161010742
37	0x40358faea0000000	21.56125831604004
38	0x403522ee20000000	21.136445999145508
39	0x4037763ab0000000	23.461833000183105
40	0x4037f85710000000	23.970078468322754
41	0x40387dffa0000000	24.4921817779541
42	0x4038d01cc0000000	24.812938690185547
43	0x4038e41c60000000	24.89105796813965
44	0x40394d86b0000000	25.302836418151855
45	0x40396399e0000000	25.389066696166992
46	0x403a8cc460000000	26.54987144470215
47	0x403a601cc0000000	26.375438690185547
48	0x403b647700000000	27.392440795898438
49	0x403c045210000000	28.01687717437744
50	0x403c811a40000000	28.50430679321289
51	0x403da98260000000	29.662145614624023
52	0x403d8a4f50000000	29.54027271270752
53	0x403cacbb60000000	28.674734115600586
54	0x403e76b6f0000000	30.46372890472412
55	0x403eae6fa0000000	30.6813907623291
56	0x403f1eb920000000	31.120012283325195
57	0x403df7d890000000	29.968148231506348
58	0x404004bd80000000	32.03703308105469
59	0x4040f718f0000000	33.93044853210449
60	0x40407c19c0000000	32.96953582763672
61	0x404125a7c0000000	34.29418182373047
62	0x4041dc1180000000	35.71928405761719
63	0x4041e3fbf0000000	35.78112602233887
64	0x4043ed90a0000000	39.85597610473633
65	0x40436f1fc0000000	38.86815643310547
66	0x4044286780000000	40.31565856933594
67	0x40465aa0f0000000	44.70803642272949
68	0x4024a6001851eb85	10.32421947479248
69	0x4024e8d0d3333333	10.454718208312988
70	0x40258d86b1eb851e	10.776418266296385
71	0x4025a524628f5c29	10.82254322052002
72	0x4025ae0853333334	10.839907264709474
73	0x4028edfa28f5c290	12.464799194335939
74	0x402cf67ca0000000	14.481419563293457
75	0x402e657560000000	15.198161125183105
76	0x402fdefd40000000	15.935525894165039
77	0x40313df546666666	17.242023849487303
78	0x4031bb782147ae14	17.732301788330076
79	0x40325c0bd1eb851f	18.35955535888672
80	0x403313a0b0a3d70a	19.076670684814452
81	0x403319c8dc28f5c2	19.10072113037109
82	0x4034326da6666666	20.1969856262207
83	0x4035291f43d70a3d	21.160633316040037
84	0x4036251193333333	22.144799423217773
85	0x40373175e6666666	23.193205261230467
86	0x403842371851eb85	24.258653182983398
87	0x4037af65cccccccd	23.685147094726563
88	0x4038be1803d70a3e	24.742553939819338
89	0x40391d4e0ccccccd	25.11447219848633
90	0x4039235c95c28f5c	25.13813148498535
91	0x403948caa7ae147b	25.28434226989746
92	0x403b8f99228f5c29	27.560930404663086
93	0x403be14d1eb851ec	27.8800830078125
94	0x403c20361ae147ae	28.125825576782226
95	0x403c1fe060000000	28.1245174407959
96	0x403c634b60000000	28.387868881225586
97	0x403d90bf71eb851f	29.56542121887207
98	0x403e673fa6666667	30.40331497192383
99	0x40409f2d15c28f5c	33.243563385009764
100	0x4041a7d7347ae148	35.31125503540039
101	0x404347a44ccccccd	38.55970153808594
102	0x403fb1d11d70a3d7	31.694597091674805
103	0x403f05cc9eb851ea	31.022653503417963
104	0x404097424ccccccd	33.18171081542969
105	0x40405596e28f5c28	32.668667144775384
106	0x403f5e8a20000000	31.369295120239258
107	0x4040aef6bd70a3d7	33.36690490722656
108	0x4040d6f0a0000000	33.67921829223633
109	0x40403614bc28f5c3	32.422507781982425
110	0x4040a48b20000000	33.28549575805664
111	0x40413f2e3999999a	34.49359817504883
112	0x40410f982f5c28f6	34.121831817626955
113	0x4040e84cf3333333	33.81484832763672
114	0x404171d12f5c28f6	34.88919631958008
115	0x40417024fae147ae	34.87612854003906
116	0x4041c643cccccccc	35.54894409179687
117	0x4041d4290e147ae1	35.65750289916992
118	0x4042259fb9999999	36.29393692016601
119	0x40422086b851eb85	36.254111328125
120	0x40423cf033333333	36.476080322265624
121	0x4042ac9513333331	37.34829940795897
122	0x40430793accccccc	38.059194183349604
123	0x40426f17cccccccd	36.867913818359376
124	0x404328ac6147ae14	38.317760620117184
125	0x4041a1f387ae147b	35.26524444580078
126	0x4042f8b18b851eb8	37.9429182434082
127	0x40445acc9c28f5c2	40.70936920166015
128	0x4043a207fd70a3d6	39.26586883544921
129	0x4043d55d40000000	39.666908264160156
130	0x4044da72051eb852	41.70660461425781
131	0x4044de6a6f5c28f6	41.737623138427736
132	0x4045f207451eb851	43.89084686279296
133	0x4046ca1543d70a3d	45.578773956298825
134	0x4045ae9315c28f5c	43.363863677978514
135	0x4048acf375c28f5c	49.35117980957031

H12_M5_fkin1p0_v0050_NoRelMotion_MulKicks f8 [4, 34]
0	0xc00f99999999999a	-3.95
1	0xc00ecccccccccccc	-3.8499999999999996
2	0xc00e000000000000	-3.75
3	0xc00d333333333332	-3.6499999999999995
4	0xc00c666666666666	-3.55
5	0xc00b999999999998	-3.4499999999999993
6	0xc00acccccccccccc	-3.3499999999999996
7	0xc009fffffffffffe	-3.249999999999999
8	0xc009333333333332	-3.1499999999999995
9	0xc008666666666664	-3.049999999999999
10	0xc007999999999998	-2.9499999999999993
11	0xc006ccccccccccca	-2.8499999999999988
12	0xc005fffffffffffe	-2.749999999999999
13	0xc005333333333330	-2.6499999999999986
14	0xc004666666666664	-2.549999999999999
15	0xc003999999999996	-2.4499999999999984
16	0xc002ccccccccccca	-2.3499999999999988
17	0xc001fffffffffffc	-2.2499999999999982
18	0xc001333333333330	-2.1499999999999986
19	0xc000666666666662	-2.049999999999998
20	0xbfff33333333332b	-1.9499999999999982
21	0xbffd999999999991	-1.849999999999998
22	0xbffbfffffffffff7	-1.749999999999998
23	0xbffa66666666665d	-1.649999999999998
24	0xbff8ccccccccccc3	-1.5499999999999978
25	0xbff7333333333329	-1.4499999999999977
26	0xbff599999999998f	-1.3499999999999976
27	0xbff3fffffffffff5	-1.2499999999999976
28	0xbff266666666665b	-1.1499999999999975
29	0xbff0ccccccccccc1	-1.0499999999999974
30	0xbfee66666666664e	-0.9499999999999973
31	0xbfeb33333333331a	-0.8499999999999972
32	0xbfe7ffffffffffe6	-0.7499999999999971
33	0xbfe4ccccccccccb2	-0.649999999999997
34	0x403997de60000000	25.593236923217773
35	0x403a01a090000000	26.006356239318848
36	0x403a7671e0000000	26.462675094604492
37	0x403ae0fdf0000000	26.87887477874756
38	0x403b67f2d0000000	27.40604877471924
39	0x403c286280000000	28.157752990722656
40	0x403d6d82c0000000	29.427776336669922
41	0x403e278340000000	30.154346466064453
42	0x403c1005a0000000	28.062585830688477
43	0x403e2054c0000000	30.126293182373047
44	0x403e492630000000	30.285738945007324
45	0x403ed11420000000	30.816713333129883
46	0x403e21b800000000	30.1317138671875
47	0x40401dc4e0000000	32.23257064819336
48	0x4040317050000000	32.386240005493164
49	0x4040948800000000	33.160400390625
50	0x4040855510000000	33.04165840148926
51	0x40413a4720000000	34.45529556274414
52	0x4040fed0f0000000	33.99075126647949
53	0x4041f0c7a0000000	35.8810920715332
54	0x4041477060000000	34.5581169128418
55	0x404256a620000000	36.676944732666016
56	0x4042b9d480000000	37.45179748535156
57	0x4043912a00000000	39.13409423828125
58	0x40432200a0000000	38.26564407348633
59	0x4043e0e000000000	39.7568359375
60	0x4043a01450000000	39.250619888305664
61	0x40440c4700000000	40.095916748046875
62	0x4046023aa0000000	44.01741409301758
63	0x4044f30ee0000000	41.89889144897461
64	0x404562cca0000000	42.77186965942383
65	0x4045815c60000000	43.0106315612793
66	0x404979c140000000	50.951210021972656
67	0x40461c9030000000	44.2231502532959
68	0x4027785990a3d70b	11.735058326721193
69	0x4027b24bdae147ae	11.848234977722168
70	0x4029541646666666	12.664232444763183
71	0x402913c687ae147c	12.538624038696291
72	0x402a9fc82a3d70a4	13.312074012756348
73	0x402c329815c28f5c	14.098816566467285
74	0x40303f65b851eb85	16.247645874023437
75	0x4031e09e6e147ae1	17.87741744995117
76	0x4032544a46666666	18.329258346557616
77	0x4032ee0cfae147ae	18.92988555908203
78	0x403505152ccccccc	21.019854354858396
79	0x40360a79251eb852	22.040911026000977
80	0x4035419970a3d70a	21.25624755859375
81	0x4036e1286e147ae1	22.879523162841796
82	0x4038353d3999999a	24.207965469360353
83	0x403795601c28f5c2	23.583497772216795
84	0x40390b8999999999	25.045068359374998
85	0x403a3cf26b851eb8	26.23807403564453
86	0x4039644727ae147b	25.391710739135743
87	0x403bb6a3f47ae148	27.713439254760743
88	0x403b7b9e70a3d70a	27.48288635253906
89	0x403cdbea07ae147b	28.859039764404297
90	0x403d197beb851eb8	29.099547119140624
91	0x403eec89b9999999	30.92397651672363
92	0x403fc2a8a51eb852	31.760385818481446
93	0x40407379347ae148	32.90213638305664
94	0x40407a336b851eb8	32.954694213867185
95	0x403fb2a388f5c28f	31.697807846069335
96	0x404063f920000000	32.78104019165039
97	0x404247f206666666	36.5620735168457
98	0x403e44f14a3d70a4	30.26930679321289
99	0x4043ca7aaa3d70a4	39.581868438720704
100	0x4047fdba1eb851ec	47.98224243164063
101	0x4044e46133333333	41.78421630859375
102	0x40447fcbdd70a3d7	40.99840896606445
103	0x40440dea7ae147ae	40.10871826171875
104	0x404543fc028f5c28	42.531128234863274
105	0x4044d7d00147ae14	41.68603530883789
106	0x4044aae4a147ae14	41.335102233886715
107	0x40447f32dc28f5c2	40.99373962402343
108	0x4044ce1af9999999	41.61019821166992
109	0x404607cde3d70a3e	44.06097076416016
110	0x4045830383d70a3d	43.023544769287106
111	0x4045afffae147ae1	43.374990234375
112	0x40452ab246666666	42.33356552124023
113	0x404605c68147ae14	44.0451203918457
114	0x4044c4f428f5c290	41.538701171875005
115	0x40458e9e4f5c28f5	43.11420623779296
116	0x404731d7aa3d70a3	46.38939407348632
117	0x404594da95c28f5d	43.16292068481446
118	0x4046a3ccaa3d70a4	45.279683380126954
119	0x4046a724c51eb852	45.30580963134766
120	0x40462832cf5c28f5	44.314050598144526
121	0x404827cc47ae147a	48.31092163085937
122	0x40469b948a3d70a4	45.21547058105469
123	0x40476c88a147ae14	46.847919616699215
124	0x404800c9428f5c28	48.00614196777343
125	0x4047b62266666666	47.4229248046875
126	0x4047b9b01c28f5c2	47.45068695068359
127	0x404aa6d72ccccccd	53.30344161987305
128	0x4048054275c28f5c	48.041090698242186
129	0x404898d5cb851eb8	49.19402450561523
130	0x4049c792b0a3d70b	51.55916412353516
131	0x4047aa1c4a3d70a4	47.32898834228516
132	0x404973edbd70a3d6	50.90569274902343
133	0x4048045d747ae148	48.034102020263674
134	0x404a9f059d70a3d7	53.24235885620117
135	0x404850be0ccccccc	48.63079986572265
